checkpoint_CEM.pth (torch_old, 1230 bytes, 4 tensors)

fc1.weight f4 [16, 4]
0.31794852 0.7871896 -3.4441128 0.56609535 2.089808 0.44744152 1.4625373 2.751396
1.4731302 0.7181201 -1.2127094 -0.53933936 -1.1419827 0.7886027 0.50222105 -1.1164231
0.3881848 2.2435312 1.7083162 2.701223 0.095435336 1.7491292 0.51708657 1.8965423
1.2310985 -1.0108105 -1.4632378 -2.8927703 -0.9785835 0.90233415 -1.4899873 -0.19460642
0.3122828 1.5613029 2.1873085 1.6070665 0.7622653 -4.0642986 -1.8597541 -3.4529035
0.13530457 -0.9416294 2.2867343 1.0100248 2.3272328 -0.96157867 0.13279061 -0.6880037
-1.1097946 -0.36000422 1.8026637 -0.37106025 1.134123 -0.47532812 0.24609523 2.0564027
-0.66032064 1.7231191 0.39252645 -1.3755803 -1.5138309 2.2615266 0.22419621 1.923771
00000000: 26ca a23e 4285 493f 586c 5cc0 a0eb 103f
00000010: 6abf 0540 0e17 e53e 6c34 bb3f df16 3040
00000020: 888f bc3f b8d6 373f 103a 9bbf 2512 0abf
00000030: 7d2c 92bf dee1 493f 8f91 003f f4e6 8ebf
00000040: 28c0 c63e 0496 0f40 1baa da3f d6e0 2c40
00000050: 9a73 c33d 77e3 df3f c95f 043f e6c1 f23f
00000060: a394 9d3f 3d62 81bf 604b bbbf 2623 39c0
00000070: 7384 7abf 5fff 663f e7b7 bebf e846 47be
00000080: 88e3 9f3e c6d8 c73f ddfc 0b40 5bb4 cd3f
00000090: d223 433f bc0e 82c0 6c0c eebf 5ffc 5cc0
000000a0: 488d 0a3e a00e 71bf db59 1240 7e48 813f
000000b0: 62f1 1440 052a 76bf 43fa 073e 0321 30bf
000000c0: c00d 8ebf 7952 b8be afbd e63f 9cfb bdbe
000000d0: f12a 913f 355e f3be 6300 7c3e 1a9c 0340
000000e0: c60a 29bf 2b8f dc3f 3af9 c83e 0413 b0bf
000000f0: 36c5 c1bf dabc 1040 b193 653e 213e f63f

fc1.bias f4 [16]
0.12687437 -1.053587 0.517409 -2.329588 2.1033244 1.1918931 3.1900437 0.021839313
0.07035304 1.0611186 1.0045015 0.892712 -0.7583502 -1.1099657 2.3743918 1.0623105
00000000: 5beb 013e f0db 86bf eb74 043f f817 15c0
00000010: de9c 0640 f48f 983f ad29 4c40 5ce8 b23c
00000020: 4115 903d bcd2 873f 8193 803f c688 643f
00000030: 3d23 42bf 5b13 8ebf 09f6 1740 caf9 873f

fc2.weight f4 [2, 16]
1.80246 3.9286284 -0.67102104 0.48750252 -2.446657 -3.6529853 1.5066569 1.1793635
0.10065986 2.7308307 -1.8911747 1.1382349 -1.769984 -2.0686717 -2.2287018 -0.60678077
-1.5124258 -0.9866287 -0.4390542 -1.519016 4.4532695 -2.0314674 -0.054999966 -1.6003762
3.9957886 -1.873262 1.9637314 1.1965976 -1.3075733 1.1591401 -2.4257486 0.075039886
00000000: 02b7 e63f a66e 7b40 09c8 2bbf ee99 f93e
00000010: 0796 1cc0 83ca 69c0 22da c03f 62f5 963f
00000020: c226 ce3d eec5 2e40 0312 f2bf aeb1 913f
00000030: d68e e2bf 1e65 04c0 0da3 0ec0 fc55 1bbf
00000040: 2b97 c1bf b393 7cbf b6cb e0be 1e6f c2bf
00000050: 2f81 8e40 9003 02c0 a547 61bd 21d9 ccbf
00000060: 00bb 7f40 0dc7 efbf 8d5b fb3f 1c2a 993f
00000070: 905e a7bf b45e 943f 773f 1bc0 83ae 993d

fc2.bias f4 [2]
2.0739458 -0.20832682
00000000: 87bb 0440 a053 55be
